_________________________________________________________________
Layer (type)                 Output Shape              Param #   
=================================================================
dense_1 (Dense)              (None, 10)                30        
_________________________________________________________________
activation_1 (Activation)    (None, 10)                0         
_________________________________________________________________
batch_normalization_1 (Batch (None, 10)                40        
_________________________________________________________________
dense_2 (Dense)              (None, 10)                110       
_________________________________________________________________
activation_2 (Activation)    (None, 10)                0         
_________________________________________________________________
batch_normalization_2 (Batch (None, 10)                40        
_________________________________________________________________
dense_3 (Dense)              (None, 1)                 11        
_________________________________________________________________
activation_3 (Activation)    (None, 1)                 0         
=================================================================
Total params: 231
Trainable params: 191
Non-trainable params: 40
_________________________________________________________________
